weights/cp.pt (torch, 71382 bytes, 5 tensors)

model.0.weight f4 [128, 4]
0	0x3e7e046e	0.24806377
1	0x3cb9512a	0.02262171
2	0xbd438a64	-0.0477394
3	0xbe566b2b	-0.20939319
4	0x3e37012e	0.17871544
5	0x3ddef7e6	0.108871266
6	0xbbe404b0	-0.0069585666
7	0xbdf5076b	-0.119643055
8	0x3ed26776	0.4109456
9	0x3eb8a894	0.36066115
10	0xbe0cc53a	-0.13747111
11	0xbd07147e	-0.032978527
12	0xbdf222e1	-0.11823059
13	0xbde74ea2	-0.11294295
14	0x3c8bb014	0.017051734
15	0xbe26e2bb	-0.16297428
16	0x3fa31e45	1.2743613
17	0x3fb3e691	1.4054738
18	0x3ea7dc40	0.32785225
19	0xbe6ec363	-0.23316722
20	0x3ef5fe53	0.48045596
21	0x3ee4fc7e	0.44723886
22	0x3d9e2d8e	0.077235326
23	0x3e03488b	0.12820642
24	0x3f945fcf	1.1591738
25	0x3f93ea3d	1.1555859
26	0xbe3a441d	-0.18190046
27	0xbf165d69	-0.5873628
28	0xbead3327	-0.3382809
29	0xbf334849	-0.70032173
30	0xbdbc6847	-0.09199577
31	0x3c982fae	0.018577423
32	0x3e11bd16	0.14232287
33	0xbd8bde83	-0.0682955
34	0xbdfb7cb6	-0.12279646
35	0x3e0dd290	0.13849854
36	0x3f87dd99	1.0614501
37	0x3fb1ce14	1.3891015
38	0x3d625430	0.05525607
39	0x3dc35f13	0.09539618
40	0x3f0825ed	0.5318287
41	0x3f406586	0.7515491
42	0x3d895641	0.06705905
43	0xbe13be3c	-0.14428037
44	0x3f248685	0.6426776
45	0x3ebc6751	0.36797574
46	0x3f006b1a	0.50163424
47	0x3f4ff0b4	0.8122666
48	0x3f096f26	0.53685224
49	0x3ceb87ca	0.028751273
50	0x3d88c6aa	0.06678517
51	0x3d864848	0.06556755
52	0xbe7d1129	-0.24713577
53	0xbe6e687e	-0.23282048
54	0x3d828e5a	0.06374808
55	0xbbca3a83	-0.006171526
56	0x3ffb3c35	1.9627749
57	0x3f149d8e	0.5805291
58	0xbe9bd199	-0.30433348
59	0x3dbd3e56	0.09240405
60	0x4013d4d5	2.3098652
61	0xbe14b3b6	-0.1452168
62	0x3d52b4ae	0.05144184
63	0xbdfcb8cd	-0.123399355
64	0x3f1d940a	0.61554015
65	0x3f21e06a	0.63233054
66	0xbcfec73f	-0.031100867
67	0x3e98f465	0.29873958
68	0x3fafae59	1.3725082
69	0x3f022275	0.5083383
70	0x3d7644ea	0.060124315
71	0x3de8d214	0.11368194
72	0x400b8fab	2.1806438
73	0x3e897075	0.2684361
74	0x3c861334	0.016366579
75	0xbe2c5cb3	-0.16832237
76	0x3fda32cc	1.7046752
77	0xbf7de7de	-0.99181926
78	0x3beb490b	0.0071803383
79	0x3d03a2c4	0.032137647
80	0x3ec61e35	0.3869492
81	0x4029f58a	2.6556115
82	0x3c584932	0.013201045
83	0xbda7ef4f	-0.08199941
84	0x3f0acced	0.5421894
85	0x3f1990c3	0.59986514
86	0x3ded9dd3	0.11602368
87	0xbdbbefd5	-0.09176604
88	0x3e1fca34	0.15604478
89	0xbf39f0db	-0.7263314
90	0x3f3ef071	0.74585634
91	0x3e917011	0.28405812
92	0xbfec3656	-1.8454082
93	0xbf902dc8	-1.1263971
94	0x3e0155fd	0.12630458
95	0x3e2b4ae4	0.16727787
96	0x3f8ff1ea	1.1245701
97	0xbf18320e	-0.5945138
98	0x3f375288	0.7161031
99	0xbe020d5c	-0.12700409
100	0x3fa91ca5	1.3211867
101	0x3f834123	1.0254253
102	0x3ec9cc1c	0.39413536
103	0xbddd9bc8	-0.108207285
104	0xbefffd85	-0.49998108
105	0x3fa3988a	1.2780926
106	0x3d4e149f	0.050312635
107	0xbd835aff	-0.064138405
108	0xbd8c4424	-0.06848934
109	0x3d91a082	0.071106926
110	0x3bf14c63	0.0073638423
111	0x3ed3801d	0.4130868
112	0x3ed4dc9e	0.41574568
113	0x3f9268f5	1.143828
114	0x3f6dbf5d	0.9287012
115	0xbeba630a	-0.36403686
116	0xbeb40a0f	-0.35163924
117	0xbf94edeb	-1.1635107
118	0x3f7080e0	0.9394665
119	0x3f6407ba	0.8907429
120	0x40206fc3	2.5068214
121	0xbeb0f090	-0.34558535
122	0x3deeed17	0.11666315
123	0xbe21049e	-0.15724418
124	0x405aba32	3.4176145
125	0x3f6e0f5a	0.92992175
126	0xbd02207b	-0.031769257
127	0x3b928fba	0.0044727
128	0xbe8d79f2	-0.276321
129	0xbdbfb5e1	-0.093608625
130	0x3f9054d4	1.1275887
131	0xbd8e7902	-0.06956674
132	0x3e2a0a51	0.16605498
133	0x3e308408	0.17237866
134	0x3e1a4387	0.15064822
135	0x3e6d9d0f	0.23204444
136	0xbfb851b9	-1.439994
137	0xbe2c34cd	-0.16817017
138	0xbecc3724	-0.3988582
139	0xbe2735eb	-0.16329162
140	0x3f108e5c	0.56467223
141	0x3ee1660f	0.44023177
142	0xbeacab41	-0.33724406
143	0xbd1a2e9b	-0.037642103
144	0x3f9e2cf8	1.2357473
145	0x3f9abcf9	1.208892
146	0xbea32f51	-0.31872037
147	0xbdfabf51	-0.12243522
148	0x4014cf88	2.3251667
149	0x3d9f83d0	0.07788813
150	0xbaf6bfae	-0.0018825436
151	0xbe0dd269	-0.13849796
152	0x3c3d402b	0.011550943
153	0x3e8bf991	0.27338842
154	0xbcb970e2	-0.022636835
155	0xbbf8d210	-0.007593401
156	0x3d478f6c	0.048720762
157	0x3e06bbb1	0.13157536
158	0x3d8a9ca6	0.067681596
159	0x3cb311b2	0.021859024
160	0xbee1060a	-0.4394992
161	0xbf3c9776	-0.7366861
162	0x3ea503a1	0.3222933
163	0x3f47159d	0.77767354
164	0x3d4401df	0.047853347
165	0x3c483b1b	0.012221123
166	0xbd2b8da7	-0.041883137
167	0x3d6c6f66	0.057723425
168	0x3f6be0fe	0.92140186
169	0x3f8d7798	1.1052122
170	0x3e3f6767	0.18691789
171	0xbfb75685	-1.4323279
172	0x3f2b12cd	0.6682556
173	0x3f3449a2	0.70424855
174	0xbdf00910	-0.117204785
175	0x3dc5594e	0.09636174
176	0xbe289fb7	-0.16467176
177	0x3fd83af6	1.6892993
178	0xbe38b3ff	-0.18037413
179	0x3e1371bf	0.1439886
180	0x3efda52a	0.49540073
181	0x3f0daa18	0.5533767
182	0xbc3f82a2	-0.01168886
183	0xbe028db7	-0.12749372
184	0xbf582d10	-0.8444376
185	0xbfb2a432	-1.3956358
186	0x3ea8b32a	0.3294919
187	0xbd37c310	-0.04486376
188	0x3ed7c2cf	0.42140815
189	0x3e4ac92d	0.19803305
190	0x3e6f5a53	0.233743
191	0xbdc93505	-0.09824566
192	0x3e5c94b7	0.21541105
193	0x3e852071	0.26001313
194	0xbd918a07	-0.07106405
195	0xbc0ec5d2	-0.008714156
196	0x3de633fe	0.112403855
197	0x3da2e8a7	0.07954531
198	0x3d06c13c	0.032899126
199	0x3d8a1673	0.06742563
200	0xbc483767	-0.01222024
201	0xbfa02aa1	-1.2513009
202	0x3d43de84	0.04781963
203	0xbf5646c4	-0.8370173
204	0xbf142b95	-0.57879
205	0xbefc6c2e	-0.49301285
206	0x3e112c56	0.14177069
207	0xbd33e0c1	-0.043915514
208	0xbed8618a	-0.42261916
209	0xbf30a4b3	-0.6900131
210	0x3d35b362	0.044360526
211	0x3be2369d	0.006903483
212	0x3edc8882	0.43072897
213	0x3de6966f	0.11259162
214	0x3e61bafd	0.22043987
215	0x3dc78dbc	0.097438306
216	0x3fc30cce	1.5238283
217	0x3f79f772	0.97643197
218	0xbde3f047	-0.11129814
219	0x3e452736	0.19253239
220	0xbe16fb4d	-0.14744301
221	0x3d77b72f	0.060477432
222	0x3f54e088	0.8315511
223	0x3f6be35d	0.92143804
224	0x400d5de9	2.2088568
225	0x3f817f33	1.0116943
226	0x3da04f0e	0.078275785
227	0xbe197e3c	-0.14989561
228	0x3ece209d	0.40259257
229	0x3ec6ded0	0.38841867
230	0xbe4319bc	-0.19052786
231	0xbc743012	-0.014904039
232	0x3eb05ef4	0.34447443
233	0x3e0f9514	0.14021713
234	0x3f5b833e	0.85747135
235	0xbfae6d9d	-1.3627201
236	0xbd3b8f04	-0.045790687
237	0xbf0adec6	-0.54246175
238	0x3ec68377	0.38772175
239	0x3f4d321e	0.801546
240	0x3f744125	0.954119
241	0x3f4ea9e7	0.80728
242	0x3d6fba60	0.05852735
243	0x3d470bc8	0.04859522
244	0x3e738aba	0.23783389
245	0x3e4e6ca8	0.20158637
246	0x3d65420c	0.05597119
247	0xbd77c257	-0.06048807
248	0xbf36ab4f	-0.71355146
249	0xbecb00f4	-0.39649165
250	0x3d16d0b5	0.036820132
251	0xbd26b3b0	-0.040698707
252	0x3f61c8a0	0.88196754
253	0x3f2938b9	0.66102177
254	0xbe035cc4	-0.12828356
255	0xbe2ccdb1	-0.1687534

model.0.bias f4 [128]
0	0xbf0e9eb3	-0.55710906
1	0xbed6a14b	-0.41919932
2	0xbf01cd0a	-0.5070349
3	0xbefde22f	-0.49586627
4	0xbb9d4778	-0.0047997795
5	0xbeb2c7f3	-0.34918174
6	0xbe1557e7	-0.14584313
7	0xbfa474ec	-1.2848182
8	0xbf445c9e	-0.7670382
9	0xbeda01cc	-0.42579496
10	0xbec3b7b0	-0.3822608
11	0xbf26a220	-0.65091133
12	0xbf114603	-0.56747454
13	0xbf813e09	-1.0097057
14	0xbf306b10	-0.68913364
15	0xbfd257db	-1.6433061
16	0xbf41356c	-0.7547214
17	0xbf87ea24	-1.0618329
18	0xbfa159b9	-1.2605506
19	0x3f5c770d	0.8611916
20	0xbf48351f	-0.78206056
21	0xbed8ce94	-0.42345107
22	0xbfa1a647	-1.2628869
23	0xbfebe7c8	-1.8430109
24	0x3e553071	0.2081926
25	0x3fa2ef2b	1.2729238
26	0xc00d96b3	-2.212323
27	0xbf7754bc	-0.9661367
28	0xbf8cd05e	-1.1001089
29	0xbfbb3cf2	-1.4627974
30	0xbfe657f3	-1.799559
31	0x3e7cb362	0.24677804
32	0xbffc5cdb	-1.9715837
33	0xbee9ce15	-0.4566504
34	0xbfdd57ad	-1.7292382
35	0xbf6f7b80	-0.9354782
36	0xbe8a6f15	-0.27037874
37	0xbfc58647	-1.5431603
38	0xbf07778e	-0.529168
39	0xbf4079c6	-0.7518581
40	0xbfc8526b	-1.5650152
41	0xbe94d63c	-0.29069698
42	0xbed8add5	-0.42320123
43	0xbf014fd9	-0.5051246
44	0xc002a8b2	-2.0415463
45	0xbf26d87c	-0.6517408
46	0x3f156dea	0.5837084
47	0xbd2993e6	-0.041400813
48	0xbea03798	-0.31292415
49	0xbe3e54ce	-0.18587038
50	0xbf932ac0	-1.1497421
51	0xbfa7effa	-1.312011
52	0xbfb0e999	-1.3821288
53	0xbf442c0c	-0.7662971
54	0xbf02e7ea	-0.5113512
55	0xbf04bc58	-0.5184989
56	0xbf3b3625	-0.73129493
57	0xbf196df5	-0.59933406
58	0xbfaa8166	-1.3320739
59	0xbf637849	-0.88855416
60	0xbed0f586	-0.4081232
61	0xbe6dd40e	-0.23225424
62	0xbfae3d17	-1.3612393
63	0xbe584ba9	-0.21122612
64	0xbfa0592f	-1.2527217
65	0xbe2ad005	-0.16680916
66	0xbfbc11ad	-1.4692894
67	0xbf844ef3	-1.0336593
68	0xbf256196	-0.6460203
69	0x3f07baaf	0.5301923
70	0xbf1be00d	-0.6088875
71	0xbef7fda3	-0.48435697
72	0xbf4a6095	-0.7905362
73	0xbf58c033	-0.8466827
74	0x3f98875e	1.1916311
75	0xbf8bbae8	-1.0916414
76	0xbee731c8	-0.45155168
77	0xbf955bf4	-1.1668687
78	0xbf5110d6	-0.81666315
79	0xbeacf637	-0.33781597
80	0xbd9afafb	-0.07567402
81	0xbed9f1f7	-0.42567417
82	0xbfd15aaa	-1.6355793
83	0xbf4af583	-0.7928087
84	0xbf260662	-0.6485349
85	0xbe435bb6	-0.19077954
86	0xbed40f85	-0.4141809
87	0xbfacebe3	-1.3509487
88	0xbf8f42da	-1.1192276
89	0xbf5aea0a	-0.85513365
90	0xbff1bfd7	-1.888667
91	0xbef67005	-0.4813234
92	0xbfcc3cd9	-1.5956069
93	0xbd6c935d	-0.057757724
94	0xbf90aff6	-1.1303699
95	0xbf894275	-1.0723406
96	0x3e72bdd1	0.23705222
97	0xbeac6c65	-0.33676448
98	0xbf70375d	-0.9383448
99	0x3f8d1a45	1.1023642
100	0x3ea595e8	0.32340932
101	0xbf3fe68d	-0.7496117
102	0xbff08cd6	-1.879298
103	0xbecea0bf	-0.40357015
104	0xbf3ae3a5	-0.7300361
105	0xbf9d6bdd	-1.2298542
106	0xbf5e4a40	-0.86832047
107	0xbfb2e5b8	-1.3976355
108	0xbfc05368	-1.5025454
109	0xbf477e52	-0.77927125
110	0xbf3879c1	-0.7206078
111	0xbf9cc4f3	-1.2247604
112	0xbf2c1b3b	-0.6722905
113	0xbf18e69d	-0.5972689
114	0x3f692717	0.9107527
115	0xbf18ea38	-0.5973239
116	0xbf2fb422	-0.68634236
117	0xbf88edd1	-1.0697576
118	0xbfd5b4f4	-1.6695848
119	0x3efc14ef	0.4923472
120	0xbf88d87c	-1.0691066
121	0xbfafbbb9	-1.3729163
122	0xbed1f081	-0.41003802
123	0xbfa0b665	-1.2555662
124	0xbf1461d0	-0.5796175
125	0xbf170f03	-0.5900728
126	0xbf7e81e7	-0.99416965
127	0xbf2b607a	-0.66944087

model.2.weight f4 [128, 128]
0	0x3d3b15f3	0.04567523
1	0xbd6a9910	-0.057274878
2	0x3d848e86	0.06472497
3	0xbe23aaec	-0.1598317
4	0x3fb11810	1.3835468
5	0x3da4e1cf	0.08050882
6	0x3edce111	0.43140462
7	0xbeda0a01	-0.42585757
8	0xbeeb023f	-0.4590015
9	0x3f4961de	0.7866496
10	0xbcd15462	-0.025552932
11	0xbe6063d8	-0.21913087
12	0xbe8014bb	-0.25015816
13	0xbd9eae98	-0.07748145
14	0xbe0ddf28	-0.13854659
15	0x3df73613	0.12070861
16	0xbbc72ef2	-0.0060785944
17	0xbd0c9c97	-0.034329023
18	0xbe5dc687	-0.21657763
19	0xbe9af32b	-0.30263647
20	0x3e05abf2	0.13053873
21	0x3e0e513c	0.13898176
22	0xbe0f7dd1	-0.14012839
23	0x3dac6bfe	0.084190354
24	0xbed5398d	-0.4164547
25	0xbf106463	-0.5640318
26	0x3faadd92	1.3348868
27	0xbf09b4d9	-0.53791577
28	0x3f7660f7	0.96241707
29	0xbf6f72c5	-0.935345
30	0xbe88ccd9	-0.26718786
31	0x3f1ec87b	0.6202466
32	0x3ee1a54e	0.4407143
33	0xbecc6f96	-0.39928883
34	0x3ede7a15	0.43452516
35	0x3e6860b6	0.22693142
36	0x3fa76eea	1.3080723
37	0xbe01339e	-0.12617347
38	0xbd865149	-0.06558473
39	0xbebc1061	-0.36731246
40	0xbe530752	-0.20608261
41	0xbe11024f	-0.14161037
42	0xbe82c94f	-0.2554421
43	0x3ec8bb8b	0.39205584
44	0x3fd65642	1.6745074
45	0x3d896700	0.06709099
46	0xbfba10c8	-1.4536371
47	0xbef331d9	-0.47498968
48	0xbe082171	-0.13294007
49	0x3dba9c33	0.09111824
50	0xbe10582b	-0.14096133
51	0xbe91e5ea	-0.28495723
52	0xbe108466	-0.14113006
53	0xbdc2b46e	-0.095070705
54	0x3e3f804a	0.18701282
55	0xbf50a6e4	-0.81504655
56	0x3f5070c1	0.8142205
57	0xbda4eecf	-0.080533616
58	0xbf6f5793	-0.93493
59	0xbf0208cf	-0.5079469
60	0x3da6d23b	0.08145567
61	0xbdfcdc45	-0.123467006
62	0xbb98c09c	-0.0046616327
63	0x3e4ecf48	0.20196259
64	0xbe634f4e	-0.22198221
65	0xbe428c7a	-0.189989
66	0x3ddef74c	0.10887012
67	0xbee9e1a0	-0.4567995
68	0xbded4551	-0.11585487
69	0x3f213004	0.6296389
70	0xbd863ef7	-0.06554978
71	0xbd6c290d	-0.057656337
72	0xbdcb0ec1	-0.099149235
73	0xbebff737	-0.37493297
74	0xbf0adbae	-0.54241455
75	0xbdb8850b	-0.09009751
76	0x3ebc4167	0.36768648
77	0xbe2ed702	-0.17074206
78	0xbcacdda8	-0.021101788
79	0x3ea6cf29	0.32579926
80	0xbe00da0c	-0.12583178
81	0x3d2289bf	0.039682146
82	0xbd8e9854	-0.06962648
83	0x3d228786	0.039680026
84	0x3e9c382f	0.30511615
85	0x3f5ac13f	0.8545112
86	0x3ec0b22e	0.3763594
87	0x3efd596d	0.4948229
88	0xbdf2d716	-0.11857431
89	0xbee0afdd	-0.43884173
90	0xbe194322	-0.14967015
91	0x3c91e950	0.017811447
92	0xbeb8b2a9	-0.36073807
93	0x3dfc3bbd	0.12316082
94	0xbe1449df	-0.14481305
95	0xbec9c3a0	-0.39407063
96	0x3e5c85e2	0.21535447
97	0x3eb51984	0.3537103
98	0xbe1ca661	-0.15297844
99	0xbe86cddd	-0.26328936
100	0xbd885521	-0.06656862
101	0x3f17f4e1	0.5935803
102	0x3e77f923	0.24216132
103	0x3f0813ef	0.53155416
104	0x3f237e3e	0.63864505
105	0x3dd498bf	0.103806965
106	0xbe969b6d	-0.29415455
107	0x3dc803ff	0.09766387
108	0xbe500bab	-0.20316951
109	0x3d0a90da	0.033829547
110	0xbe2212c1	-0.15827467
111	0xbdd92555	-0.10602824
112	0xbc70fd43	-0.01470882
113	0xbd0e12e0	-0.03468597
114	0xbe9a8d90	-0.3018613
115	0xbe0ba437	-0.13636862
116	0x3e9ad926	0.30243796
117	0xbf1362bd	-0.5757254
118	0x3d26265f	0.040563937
119	0x3eaa38f9	0.33246592
120	0xbf089ad3	-0.53361243
121	0xbe35ece4	-0.17766148
122	0x3e326852	0.17422608
123	0x3e4a04fe	0.19728467
124	0xbe3e60c8	-0.18591607
125	0xbe286793	-0.1644576
126	0xbe8601dd	-0.26173297
127	0xbe8f8766	-0.28032988
128	0xbcbd1f7f	-0.023086308
129	0xbdd204b0	-0.102548
130	0x3cd405a1	0.02588159
131	0xbe29e793	-0.16592245
132	0x3e8aa0f0	0.2707591
133	0xbe8ee70a	-0.27910644
134	0x3d6ea885	0.05826618
135	0xbd53c743	-0.051703703
136	0xbdd5d6c8	-0.10441357
137	0x3f104a06	0.5636295
138	0x3cca1bc5	0.024671445
139	0xbee4567a	-0.44597226
140	0xbe50e0b4	-0.20398217
141	0xbc615c00	-0.013754845
142	0xbd151814	-0.036399916
143	0x3f3d78a0	0.74012184
144	0x3eb2d09c	0.3492478
145	0xbcb8181b	-0.022472432
146	0x3db0651f	0.08613037
147	0xbe5dfaa5	-0.21677645
148	0xbe8bf769	-0.27337196
149	0xbc7508f0	-0.014955744
150	0x3ccd6bca	0.025075812
151	0xbb800203	-0.00390649
152	0xbe41c491	-0.1892264
153	0xbe9fa8b6	-0.31183404
154	0xbc5f9f39	-0.0136488015
155	0x3e345584	0.17610747
156	0x3eb94d1e	0.36191648
157	0xbe37714c	-0.17914313
158	0x3f3774df	0.71662706
159	0x3e2d3d17	0.16917835
160	0xbd17037c	-0.036868557
161	0xbe621541	-0.2207842
162	0xbdb9835d	-0.09058259
163	0x3cd1cb94	0.025609769
164	0x3eba0754	0.36333716
165	0x3ca335ed	0.019923175
166	0xbd20f4b7	-0.03929588
167	0xbd8e1fa6	-0.0693963
168	0x3e8d55f5	0.27604643
169	0xbe3cf9ad	-0.18454619
170	0x3ccd8b03	0.0250907
171	0x3df3e8e6	0.11909656
172	0x3d924b9f	0.0714333
173	0x3dfb0d66	0.12258415
174	0xbeddf7db	-0.4335316
175	0xbe3411cd	-0.17584915
176	0xbdd2bd15	-0.10289971
177	0x3d3cffa9	0.046142254
178	0xbe901208	-0.28138757
179	0xbe4d0725	-0.20022257
180	0xbd9f438c	-0.077765554
181	0xbe82fccd	-0.25583497
182	0x3e832a41	0.25618175
183	0xbe3bd1e3	-0.18341784
184	0x3f0d1eab	0.5512492
185	0xbe4bfe4f	-0.1992123
186	0xbe3bf265	-0.18354185
187	0xbef97deb	-0.4872888
188	0x3dc150ff	0.09439277
189	0x3cd3c036	0.02584849
190	0xbd81cc2c	-0.06337771
191	0xbdd50d7d	-0.10402963
192	0xbda1fd9a	-0.07909699
193	0xbe44f840	-0.19235325
194	0x3e606973	0.21915226
195	0xbd490350	-0.049075425
196	0xbd8e76ed	-0.06956277
197	0x3e4e9a6c	0.20176095
198	0x3ceabb4e	0.028653767
199	0xbda2525e	-0.079258665
200	0xbe86f5cb	-0.263594
201	0xbcf7bfe4	-0.030242868
202	0xbea39e1a	-0.3195656
203	0xbe2b4bc8	-0.16728127
204	0x3e9a824b	0.3017753
205	0xbe6ab40d	-0.22920246
206	0x3d2d7000	0.04234314
207	0xbe150dae	-0.14556
208	0xbd4267d0	-0.047462285
209	0xbd967787	-0.07347017
210	0xbe6a5eb3	-0.22887687
211	0x3d0394dc	0.032124385
212	0xbebae936	-0.3650605
213	0x3e4974af	0.19673418
214	0x3e274fa7	0.16338979
215	0xbbd89ec5	-0.0066107237
216	0x3ded29bd	0.115802266
217	0xbd92834d	-0.0715395
218	0xbe8102d0	-0.25197458
219	0x3ae36417	0.0017348555
220	0x3d8f5618	0.06998843
221	0x3d529a6d	0.051416803
222	0x3d9de439	0.07709546
223	0x3d3b1346	0.045672677
224	0x3e38c09e	0.18042228
225	0xbc44f59d	-0.012021449
226	0x3d64376c	0.055716917
227	0xbec32961	-0.38117507
228	0xbd8bc392	-0.068244115
229	0x3cfc43c6	0.030794036
230	0xbc5168c8	-0.012781329
231	0x3e5d0722	0.21584752
232	0x3d33ce8b	0.043898147
233	0xbe305988	-0.17221653
234	0xbd348758	-0.044074386
235	0x3ebd8627	0.37016413
236	0xbca024e8	-0.019548848
237	0xbe62c208	-0.2214433
238	0xbd20f4f1	-0.039296094
239	0xbe152200	-0.14563751
240	0xbdd17dbb	-0.10229059
241	0xbd8b9461	-0.068154104
242	0xbe0b0d7d	-0.13579364
243	0xbe7606b6	-0.24025998
244	0xbddd5e65	-0.1080902
245	0x3cdf92cf	0.027291683
246	0xbda51d55	-0.08062235
247	0x3e2f4fcf	0.17120288
248	0x3d29cc48	0.041454583
249	0x3d5e7193	0.05430753
250	0xbd110e22	-0.03541387
251	0xbe2226a9	-0.1583506
252	0xbe5e2fec	-0.21697968
253	0xbe05c62e	-0.13063881
254	0x3ce21f2e	0.027602758
255	0xbe50eefc	-0.20403665

model.2.bias f4 [128]
0	0xbfe29206	-1.7700813
1	0xbf60f8ea	-0.8787981
2	0xbdd8f4da	-0.10593577
3	0xbda8c5da	-0.08240862
4	0xbdd56046	-0.10418753
5	0xbf1735b4	-0.5906632
6	0xbf012e69	-0.5046144
7	0xbe0a74b7	-0.13521086
8	0xbd6135c4	-0.054982916
9	0xbdb17330	-0.086645484
10	0xbe436ffb	-0.19085686
11	0xbfa2bf80	-1.2714691
12	0xbdf90e7f	-0.12160968
13	0xbe3796d3	-0.17928629
14	0xbf95ddcc	-1.1708312
15	0x3f99e64a	1.2023404
16	0xbf7aea52	-0.98013794
17	0x3f4c5ae4	0.7982619
18	0xbde0c50a	-0.10975082
19	0x3c2d99bd	0.010595736
20	0x3fca8230	1.582098
21	0xbdbc5e03	-0.09197619
22	0xbf9c8fa4	-1.2231336
23	0xbdeca174	-0.11554232
24	0xbe9c8114	-0.3056723
25	0xbe11caa7	-0.14237462
26	0xbf89e647	-1.07734
27	0xbe39d795	-0.18148644
28	0x3f5ec18e	0.8701409
29	0xbf1b2416	-0.6060194
30	0xbda5a88e	-0.0808879
31	0xbf9a1e1e	-1.2040441
32	0xbf80116a	-1.0005314
33	0x3c3c8b4a	0.0115078185
34	0x3c4617a5	0.012090598
35	0xbee46d54	-0.4461466
36	0xbfc437dc	-1.5329547
37	0xbf595349	-0.8489271
38	0xbee22cbd	-0.44174758
39	0xbef31656	-0.47477978
40	0xbda154af	-0.0787748
41	0xbe15075e	-0.14553592
42	0xc00584f5	-2.08624
43	0xbe4da743	-0.20083337
44	0xbf84540f	-1.0338153
45	0xbe56e0ab	-0.20984142
46	0xbde78b01	-0.1130581
47	0x3b05bfad	0.0020408437
48	0xbebb36e5	-0.3656532
49	0xbef3d6ce	-0.4762482
50	0xbd4803b4	-0.048831657
51	0xbf5ba214	-0.85794187
52	0xbe14b9f0	-0.14524055
53	0xbf3792bb	-0.7170827
54	0xbd7def17	-0.061995592
55	0xbf89d4bb	-1.0768045
56	0xbf531ec2	-0.8246881
57	0xbf144d72	-0.5793067
58	0x3c85cf0b	0.016334077
59	0xbe8b2b0b	-0.27181277
60	0xbe76006a	-0.24023595
61	0xbde73e43	-0.11291172
62	0xbf843a4f	-1.0330294
63	0x3e960a2b	0.29304633
64	0x3f75e44c	0.9605148
65	0xbf20ac8e	-0.627633
66	0xbc888a11	-0.016667398
67	0xbdfe4922	-0.12416293
68	0x3eb04d07	0.34433767
69	0xbf46ecbc	-0.7770498
70	0xbf22b4a6	-0.635569
71	0xbdd91912	-0.10600485
72	0xbdb4de55	-0.08831469
73	0xbfd51b7a	-1.664901
74	0xbe091f5c	-0.13390869
75	0xc021d2fe	-2.528503
76	0xbf2190e5	-0.63111717
77	0xbd80f46f	-0.06296622
78	0xbdc8065e	-0.097668394
79	0xbf07d04e	-0.5305222
80	0x3cd46a26	0.025929522
81	0xbf3dc2f0	-0.74125576
82	0xbed30e6c	-0.4122194
83	0xbf50440c	-0.8135383
84	0xbcf62f9c	-0.030051999
85	0xbfcb54d3	-1.5885261
86	0xbda6b5f5	-0.08140174
87	0xbd579ba9	-0.052638683
88	0xbdaac5e9	-0.083385296
89	0xbe165977	-0.14682566
90	0xbf7548b4	-0.9581406
91	0xbe8f283b	-0.2796038
92	0xbf1fbcbb	-0.62397355
93	0xbdea7cb9	-0.1144957
94	0xbf05db6e	-0.5228795
95	0xbee3ece6	-0.44516677
96	0xc01c097d	-2.438079
97	0xbddd01e8	-0.10791379
98	0xc04a55a0	-3.1614761
99	0xbf5723b7	-0.8403887
100	0xbe199baf	-0.15000795
101	0xbf6c53ac	-0.92315173
102	0xbd8d7120	-0.069063425
103	0xbecc31c9	-0.39881733
104	0xbb43c0f3	-0.0029869645
105	0xbd923528	-0.07139045
106	0xbf29cb45	-0.6632579
107	0xbdc5377a	-0.09629722
108	0xbe8ab27b	-0.27089295
109	0xbdf07a3f	-0.117420666
110	0x3ccb7ed7	0.024840755
111	0xbdc1c1f7	-0.09460824
112	0xbf978dde	-1.184017
113	0xbf1da08b	-0.61573094
114	0xbd778b5a	-0.06043563
115	0xbf6d0cae	-0.9259747
116	0xbdc9599c	-0.09831545
117	0xbda56094	-0.080750614
118	0xbdd0da33	-0.10197868
119	0xbff26912	-1.8938315
120	0xbf2d908f	-0.67798704
121	0xbfb2ea4e	-1.3977754
122	0xbe6a8896	-0.22903666
123	0xbea28875	-0.31744733
124	0xbdcfd2ae	-0.10147606
125	0xbae30a85	-0.0017321861
126	0xbd1a8fd1	-0.03773481
127	0xbdc0a148	-0.09405762

model.4.weight f4 [1, 128]
0	0x3d98e952	0.07466377
1	0x3ea0d5e2	0.3141318
2	0x3b5b0b9a	0.0033423663
3	0x38ba23ba	8.875826e-05
4	0x3cb93407	0.022607816
5	0xbe07e7cc	-0.13272017
6	0x3f3d813a	0.7402531
7	0x3d445369	0.04793111
8	0x3c5e3bbe	0.013564048
9	0xbce20372	-0.027589533
10	0xbdee39d4	-0.116321236
11	0xbc989d2e	-0.018629637
12	0x3cc062f5	0.023484686
13	0x3c944423	0.018098896
14	0xbe15165d	-0.14559312
15	0xbf9d1aa8	-1.227376
16	0xbef9c350	-0.48781824
17	0x3f35fa07	0.71084636
18	0x3c5a3341	0.013317884
19	0x3b9280f8	0.0044709407
20	0xbeeca886	-0.46222323
21	0x3d130365	0.03589191
22	0x3d97c4cd	0.07410584
23	0xbca9c6d6	-0.020724695
24	0x3c236d31	0.009974764
25	0xbc86d152	-0.016457234
26	0x3dfc21bd	0.123111226
27	0x3f70324f	0.93826765
28	0xbee1b906	-0.44086474
29	0xbd7c6302	-0.06161786
30	0xbc1e9ad5	-0.0096804695
31	0x3ea3c420	0.3198557
32	0xbdc17522	-0.094461694
33	0x3c6f6c89	0.014613279
34	0x3c9120c3	0.017715817
35	0x3e860b43	0.26180467
36	0x3da8b4d3	0.082376145
37	0xbd8e4895	-0.06947438
38	0xbe042925	-0.1290632
39	0xbd8e9762	-0.06962468
40	0xb93d3958	-0.00018045807
41	0xbcafa7a1	-0.021442236
42	0x3c8e3db2	0.017363403
43	0xbdc01161	-0.09378315
44	0x3df8669f	0.121289484
45	0x3e189c8e	0.14903471
46	0xbc83e04b	-0.016098162
47	0x3d281876	0.041038953
48	0x3e71ebf7	0.2362517
49	0xbdd14123	-0.10217502
50	0xbcb92480	-0.022600412
51	0x3d9fa527	0.07795172
52	0xbcf727d8	-0.030170366
53	0x3e35fc5d	0.1777205
54	0xbc6f1a2b	-0.014593641
55	0x3da1593d	0.07878349
56	0xbe210900	-0.1572609
57	0xbe881807	-0.2658083
58	0x3d1cf86b	0.038322847
59	0x3ead531b	0.33852467
60	0xbd1ee232	-0.038789935
61	0xbc6d38d6	-0.014478883
62	0x3d100af4	0.035166696
63	0x3f3f69a6	0.7477058
64	0x3fe33133	1.774939
65	0x3e9120a0	0.28345203
66	0x3d1068c1	0.03525615
67	0xbd256570	-0.04037994
68	0x3f78cff6	0.97192323
69	0xbe0244c5	-0.12721546
70	0x3cc3fd18	0.023924395
71	0xbc13f815	-0.009031315
72	0x3d2487e8	0.040168673
73	0x3d1c8521	0.0382129
74	0xbca391b6	-0.019966941
75	0x3ee9d99c	0.45673835
76	0x3ea604c3	0.32425508
77	0x3d083394	0.033252314
78	0xbc032b3b	-0.008005912
79	0xbd7f7ab7	-0.06237289
80	0x3d1fc453	0.03900559
81	0x3d6ed8c2	0.058312185
82	0x3e38817d	0.18018146
83	0xbe022719	-0.12710227
84	0x3d4b1259	0.049578045
85	0x3c52987f	0.012853741
86	0x3a64b2d3	0.00087241567
87	0x3c9f15b2	0.019419525
88	0xbcdb5bcf	-0.026777176
89	0x3b6da12f	0.0036259403
90	0x3da8a091	0.082337506
91	0x3e7a52ed	0.24445696
92	0x3aeb22ec	0.0017939485
93	0x3d43dde4	0.047819033
94	0xbdf76010	-0.12078869
95	0xbe8c56fd	-0.27410117
96	0xbce5cc1b	-0.028051427
97	0x3a1d3b44	0.0005997906
98	0x3f1a823c	0.6035497
99	0xbdbcc859	-0.09217901
100	0x3fa3ec2c	1.2806449
101	0x3e12e377	0.14344583
102	0x3c543d03	0.012953999
103	0x3e9d2d6f	0.30698726
104	0xbcf145dc	-0.029452257
105	0x3d6b57b6	0.057456695
106	0xbd211861	-0.03932989
107	0x3cc35775	0.023845414
108	0xbe88201c	-0.26586998
109	0x3dc1c305	0.09461025
110	0x3d660a78	0.056162328
111	0xbcda2968	-0.026631072
112	0xbe3e1342	-0.18562034
113	0xbdd3755c	-0.10325119
114	0xbd374915	-0.04474743
115	0x3c3196cb	0.0108391745
116	0x3d5b96b2	0.05361051
117	0x3bbfb813	0.005850801
118	0xbc64decb	-0.013969134
119	0x3d5aaefe	0.05338954
120	0x3e8c8b37	0.27449962
121	0xbdfa315e	-0.12216447
122	0xbc90a7a3	-0.01765806
123	0xbc9c6d62	-0.019095127
124	0xbc0695b4	-0.008214403
125	0x3cd5bab7	0.02609001
126	0xbd62f32e	-0.055407695
127	0xbca16454	-0.01970116
