weights/model2_weights.pt (torch, 131412 bytes, 7 tensors)

conv_layers.0.weight f4 [48, 1, 3]
0.28297824 0.16663413 -0.24109979 -0.78275514 0.16116104 -0.32764658 -0.47979373 0.49885103
0.115150526 -0.3483072 0.4303964 0.23850095 0.3678815 -0.052914463 0.0047155046 -0.4976106
0.32923055 0.20852879 -0.42314997 -0.22023992 -0.2604671 -0.44532907 -0.27284533 -0.13635874
0.6616693 0.5487606 0.37288383 0.48791987 0.45251054 0.29065305 -0.532091 -0.64331985
-0.013305314 -0.038922373 0.40868756 -0.4138828 -0.04270316 0.15535477 -0.07520091 -0.20048796
0.56082016 -0.077879295 0.123608135 0.10606115 -0.5421295 0.122553974 0.050635464 -0.27850297
0.73893064 -0.023714734 0.122833654 0.93760747 0.117811374 0.11787304 0.19489495 0.42297852
-0.08757388 0.38068244 -0.1863339 -0.22448856 -0.49019715 -0.548898 -0.12367604 0.15570664
0.1550559 -0.120580204 0.17489824 0.1511018 0.47401282 0.06741469 -0.08714104 -0.39979583
-0.24040045 -0.3746785 -0.050387908 -0.18405831 0.34124926 -0.45692685 0.6106946 -0.3527374
-0.21921982 -0.07627544 -0.28053343 -0.57416666 -0.18504705 0.7781632 -0.09095818 0.25379
-0.38767114 0.071851924 0.25943983 -0.10089143 0.69452095 -0.50199205 -0.6464144 -0.41374037
0.49974978 -0.42378625 -0.12083757 0.15450141 0.6497174 0.06073431 0.43844986 0.53334206
0.013248535 0.25564858 0.55681735 -0.13541012 0.94141257 -0.52853256 0.32201526 0.33390272
0.47705504 0.34136376 -0.63360137 -0.5422187 0.2176576 0.31347716 -0.19061752 0.15477434
0.13411827 0.57269734 -0.5655085 0.03912934 -0.21236436 -0.2848939 0.10498728 0.26140893
0.66816837 -0.19878529 0.2473587 -0.5341895 0.09690859 -0.66691166 0.0016992243 -0.19883916
-0.5273442 -0.3357075 0.7320157 0.34874582 -0.71501935 -0.22058642 -0.55846196 0.31559905
00000000: 86e2 903e 23a2 2a3e dde2 76be a462 48bf
00000010: 6607 253e 4bc1 a7be 86a7 f5be 6769 ff3e
00000020: 0ad4 eb3d 5255 b2be eb5c dc3e 9839 743e
00000030: f75a bc3e d6bc 58bd 8584 9a3b d1c6 febe
00000040: e890 a83e 9288 553e 1da7 d8be 9386 61be
00000050: f25b 85be 2c02 e4be 62b2 8bbe a0a1 0bbe
00000060: 2963 293f 937b 0c3f a1ea be3e a2d0 f93e
00000070: 76af e73e 7ad0 943e 1e37 08bf 9cb0 24bf
00000080: 88fe 59bc 116d 1fbd 7f3f d13e 72e8 d3be
00000090: 82e9 2ebd 5215 1f3e ef02 9abd b74c 4dbe
000000a0: e991 0f3f 2e7f 9fbd 4326 fd3d 9736 d93d
000000b0: 00c9 0abf 94fd fa3d 2267 4f3d f197 8ebe
000000c0: 8f2a 3d3f 6745 c2bc 3690 fb3d 0b07 703f
000000d0: 1747 f13d 6c67 f13d 8b92 473e a490 d83e
000000e0: ef59 b3bd cfe8 c23e 50ce 3ebe 54e0 65be
000000f0: 1ffb fabe 9484 0cbf dd49 fdbd 9071 1f3e
00000100: f9c6 1e3e c1f2 f6bd 8618 333e 6eba 1a3e
00000110: cfb1 f23e b710 8a3d 0077 b2bd 0ab2 ccbe
00000120: 892b 76be dcd5 bfbe 8d63 4ebd c879 3cbe
00000130: 39b8 ae3e 51f2 e9be 7b56 1c3f ff99 b4be
00000140: 297b 60be 4c36 9cbd 14a2 8fbe 96fc 12bf
00000150: f97c 3dbe b435 473f 4848 babd c3f0 813e
00000160: d57c c6be 1a27 933d 4cd5 843e 2ba0 cebd
00000170: 20cc 313f 8d82 00bf 6a7b 25bf c7d5 d3be
00000180: 34df ff3e 83fa d8be b079 f7bd 9e35 1e3e
00000190: e153 263f 8ac4 783d 807c e03e 1b89 083f
000001a0: 6210 593c 5fe4 823e 958b 0e3f f3a8 0abe
000001b0: 6a00 713f e94d 07bf 2fdf a43e 4cf5 aa3e
000001c0: 8f40 f43e 3bc7 ae3e b333 22bf d8ce 0abf
000001d0: a2e1 5e3e 1480 a03e 3d31 43be 2a7d 1e3e
000001e0: 4d56 093e 4b9c 123f 2ac5 10bf 1646 203d
000001f0: 0b76 59be 9ddd 91be 9203 d73d 64d7 853e
00000200: 150d 2b3f 5f8e 4bbe 994b 7d3e a5c0 08bf
00000210: 0378 c63d b9ba 2abf 82b8 de3a 7e9c 4bbe
00000220: 0800 07bf dae1 abbe 6265 3b3f d08e b23e
00000230: 820b 37bf 68e1 61be 5df7 0ebf 3396 a13e

conv_layers.0.bias f4 [48]
0.25805518 -0.12878764 0.062089622 0.4854543 0.49163222 -0.095196836 -0.15401824 0.27674335
0.060985405 -0.029166045 -0.34497932 0.42015764 0.50018585 -0.43395 -0.34524736 0.03574652
0.04480588 0.15422824 0.35199696 0.07595222 0.45429906 0.45921022 -0.15858571 -0.37933704
0.33824527 -0.2396273 0.42331636 -0.46787333 -0.58271176 -0.46529984 -0.2277212 0.30129054
-0.3045589 0.3063284 -0.33820185 -0.4813006 -0.3154019 0.0629741 -0.09603733 -0.47319418
-0.25908464 0.48409712 -0.13760512 -0.32739 0.005284347 0.4567857 -0.4728574 0.0154577065
00000000: cf1f 843e e8e0 03be b051 7e3d 778d f83e
00000010: 38b7 fb3e 8ff6 c2bd f5b6 1dbe 4eb1 8d3e
00000020: d5cb 793d a1ed eebc 21a1 b0be e71e d73e
00000030: 2e0c 003f b22e debe 43c4 b0be f16a 123d
00000040: 5f86 373d 02ee 1d3e f238 b43e d68c 9b3d
00000050: e399 e83e 9a1d eb3e 4b64 22be 7738 c2be
00000060: 7c2e ad3e dc60 75be ecbc d83e 188d efbe
00000070: 992c 15bf c83b eebe bf2f 69be c142 9a3e
00000080: 25ef 9bbe 13d7 9c3e cb28 adbe 086d f6be
00000090: 5c7c a1be 91f8 803d 38af c4bd 8246 f2be
000000a0: bea6 84be 94db f73e 5be8 0cbe a99f a7be
000000b0: 5128 ad3b d1df e93e 5d1a f2be 5242 7d3c

conv_layers.2.weight f4 [48, 48, 3]
-0.12903754 0.06327028 0.013563161 0.18926081 0.067045934 0.14115033 0.17850368 -0.013035212
-0.08731132 0.056206748 0.031079644 -0.085967086 -0.069953434 0.03664031 -0.017457038 0.10453083
0.05172733 0.020658812 0.1071336 -0.035890833 -0.021605954 -0.05639858 -0.17209378 0.070408866
0.051240303 0.11652602 -0.07408734 -0.013736876 0.0906428 0.09003374 0.11407541 -0.3027725
0.027069645 -0.046149928 -0.04709882 -0.113478966 -0.026090626 -0.031539865 0.053541087 0.35111398
0.09619517 -0.011799984 -0.040002428 -0.10299499 -0.03501063 -0.1001562 -0.006814463 -0.007170376
-0.08411839 0.019702159 0.10065802 -0.044177543 0.072636776 0.071045876 0.006186726 0.051754557
-0.050947268 -0.21656376 0.09970372 0.0032852727 -0.05637531 -0.17153043 -0.012154655 -0.073185064
0.031199528 -0.05308993 0.05473173 -0.019936955 0.08549543 -0.08375842 0.044247657 0.003795991
-0.04060983 -0.13444033 0.04626036 0.16049816 0.023900185 -0.0714069 -0.1545443 0.032106217
0.0005683135 0.06333388 -0.021956816 -0.03019167 0.46014223 0.17089482 -0.091986984 0.020112367
0.23493767 -0.013741477 0.12358756 0.017431824 0.078472026 -0.04478266 -0.1029911 0.0098162815
0.0026787275 0.1768592 0.015350264 0.040515065 0.11411967 0.03778185 0.20134202 -0.14211747
-0.027042046 0.25118232 -0.09224691 0.06399225 0.057794534 0.05517578 0.128836 0.04042356
-0.028835434 0.026473999 0.0632494 -0.11577351 0.076347575 0.5784589 0.052945662 -0.044288076
0.025411086 -0.049950566 -0.007795208 -0.081410505 -0.003388739 -0.0064196247 0.19615884 0.007698873
0.03086388 0.055995125 -0.018731674 0.04879137 -0.05920057 0.12373357 -0.116600975 -0.16778435
-0.08564922 0.041178398 0.07435427 -0.04914371 -0.011538682 0.017408043 -0.16087125 0.040473316
-0.029263468 0.083138354 0.018134277 -0.092253156 -0.08304054 -0.39977485 -0.064334184 -0.18553777
-0.043118503 -0.0075723515 0.0014984657 -0.07465951 -0.00034214213 0.051902246 0.09865063 -0.09635128
0.043657616 0.068468526 -0.0970242 -0.05727898 -0.07790844 -0.10335185 -0.101517364 0.055988915
-0.054577634 0.040260043 0.079929315 -0.05676585 0.038632542 -0.059224043 -0.13988271 -0.10691516
-0.047596253 0.039050713 0.061282244 -0.004975423 0.08256947 0.023979746 0.012387022 0.03779281
-0.014308235 -0.23769334 -0.12651084 -0.028589858 0.03007367 0.11924707 -0.010498587 0.0047825375
-0.052605737 -0.033324677 -0.14885634 -0.040317286 0.0627436 -0.15752001 0.022822075 0.07853709
0.10035835 -0.13164113 0.024433006 0.09495627 -0.064776815 -0.013850016 -0.057396896 0.035094652
0.039564274 0.062797435 -0.045712132 -0.007641148 0.047880538 -0.009752869 0.06904458 -0.031804554
-0.09457085 -0.012898116 0.0076769376 -0.10503551 -0.056457143 0.23005457 -0.027452024 0.047183573
0.034634337 -0.074051596 0.099208534 -0.03470193 0.03056375 0.033121694 -0.04563466 -0.026499601
-0.074897215 -0.040937614 -0.22041953 -0.06480506 -0.048173454 -0.16428806 0.0136695 0.049400143
0.008465044 0.10664583 0.0047176476 0.10260111 0.004786438 0.15080774 0.018214226 0.09017208
0.021028535 0.034960385 0.08227048 0.07347615 -0.03540132 -0.060614407 -0.1316656 0.0011783768
00000000: 6b22 04be d993 813d 0538 5e3c 96cd 413e
00000010: 614f 893d b689 103e abc9 363e a491 55bc
00000020: 47d0 b2bd 0c39 663d bd9a fe3c 830f b0bd
00000030: bf43 8fbd 2614 163d 1002 8fbc 4314 d63d
00000040: 09e0 533d ab3c a93c dc68 db3d 4402 13bd
00000050: f8fe b0bc 3302 67bd 5a39 30be 8632 903d
00000060: 5ae1 513d 32a5 ee3d 1abb 97bd a210 61bc
00000070: efa2 b93d 9c63 b83d 5ea0 e93d ff04 9bbe
00000080: 29c1 dd3c b507 3dbd b1ea 40bd a967 e8bd
00000090: 02bc d5bc f22f 01bd e64d 5b3d 36c5 b33e
000000a0: f901 c53d b854 41bc 96d9 23bd 0aef d2bd
000000b0: 4e67 0fbd b21e cdbd dc4b dfbb 79f5 eabb
000000c0: 4346 acbd 6c66 a13c cb25 ce3d 83f3 34bd
000000d0: 97c2 943d 8080 913d 05ba ca3b 96fc 533d
000000e0: 15ae 50bd e4c2 5dbe 7731 cc3d bb4d 573b
000000f0: cce9 66bd aca5 2fbe 5124 47bc 0de2 95bd
00000100: 2796 ff3c d474 59bd 612e 603d d352 a3bc
00000110: 3a18 af3d 8989 abbd 083d 353d 29c6 783b
00000120: 7e56 26bd baaa 09be 817b 3d3d a159 243e
00000130: 52ca c33c c83d 92bd dc40 1ebe cf81 033d
00000140: e0fa 143a 31b5 813d c8de b3bc 8554 f7bc
00000150: c397 eb3e 0dff 2e3e ac63 bcbd b1c2 a43c
00000160: 8093 703e ef23 61bc 7a1b fd3d 2fcd 8e3c
00000170: f1b5 a03d 066e 37bd ffec d2bd 78d4 203c
00000180: 978d 2f3b 941a 353e ac7f 7b3c 20f3 253d
00000190: 93b7 e93d 24c1 1a3d 9a2c 4e3e 3e87 11be
000001a0: 4887 ddbc f89a 803e f3eb bcbd 5e0e 833d
000001b0: f6b9 6c3d 0000 623d 96ed 033e 2d93 253d
000001c0: 4a38 ecbc 00e0 d83c e788 813d a91a edbd
000001d0: 1e5c 9c3d e215 143f 8ddd 583d 6a67 35bd
000001e0: e92a d03c f798 4cbd f26e ffbb 8dba a6bd
000001f0: 9b15 5ebb b75b d2bb dddd 483e d446 fc3b
00000200: 3fd6 fc3c 255b 653d 2b73 99bc 76d9 473d
00000210: 4c7c 72bd 0768 fd3d 7ecc eebd a9cf 2bbe
00000220: dc68 afbd aeaa 283d 0d47 983d ea4a 49bd
00000230: bd0c 3dbc 509b 8e3c 6fbb 24be 59c7 253d
00000240: f1b9 efbc 7144 aa3d 568e 943c 39ef bcbd
00000250: 2911 aabd 4aaf ccbe a4c1 83bd 9dfd 3dbe
00000260: 079d 30bd 7d21 f8bb 2a68 c43a 16e7 98bd
00000270: 8a61 b3b9 7397 543d 5709 ca3d d253 c5bd
00000280: 54d2 323d 3a39 8c3d a0b4 c6bd 5d9d 6abd
00000290: 768e 9fbd 22aa d3bd 56e8 cfbd a254 653d
000002a0: cc8c 5fbd b7e7 243d fbb1 a33d 4f83 68bd
000002b0: 283d 1e3d e994 72bd 6a3d 0fbe 56f6 dabd
000002c0: 4af4 42bd a4f3 1f3d 1703 7b3d e008 a3bb
000002d0: 2f1a a93d 2c71 c43c f0f2 4a3c a2cc 1a3d
000002e0: 166d 6abc e265 73be 0f8c 01be 4735 eabc
000002f0: 0f5d f63c cf37 f43d 4402 2cbc d5b6 9c3b
00000300: 1d79 57bd 757f 08bd cc6d 18be bd23 25bd
00000310: b77f 803d ed4c 21be 5cf5 ba3c 0ed8 a03d
00000320: ae88 cd3d efcc 06be ba27 c83c 6f78 c23d
00000330: b5a9 84bd 2deb 62bc 0219 6bbd 69bf 0f3d
00000340: 260e 223d f19b 803d a53c 3bbd 9862 fabb
00000350: 621e 443d 7fca 1fbc 3f67 8d3d 7e45 02bd
00000360: 5dae c1bd 9f52 53bc d28e fb3b dc1c d7bd
00000370: 9b3f 67bd 6d93 6b3e 11e3 e0bc 9043 413d
00000380: bcdc 0d3d 5da8 97bd d82d cb3d 9c23 0ebd
00000390: d460 fa3c 9daa 073d 69eb 3abd b115 d9bc
000003a0: b663 99bd 33ae 27bd a8b5 61be 84b8 84bd
000003b0: 8751 45bd 213b 28be 0af6 5f3c ce57 4a3d
000003c0: f8b0 0a3c 2169 da3d 7f96 9a3b 8820 d23d
000003d0: 8dd7 9c3b 586d 1a3e 0036 953c 24ac b83d
000003e0: 0944 ac3c 9f32 0f3d 6d7d a83d aa7a 963d
000003f0: f900 11bd d046 78bd 59d3 06be c473 9a3a

conv_layers.2.bias f4 [48]
0.047430076 0.035442457 0.08062496 -0.03904536 0.03352566 -0.020704554 0.044286683 0.029432712
-0.06991547 -0.02973342 -0.12606396 -0.06647279 -0.008394959 -0.12673357 -0.14007181 0.073483706
0.0077830525 0.021770509 -0.12116536 0.06933133 0.026167106 0.11959964 -0.008705975 0.029771429
-0.09614137 -0.04237991 -0.016307207 -0.07596731 -0.13824038 0.105325244 0.011637384 0.16827933
-0.15182434 -0.0047126375 0.053569723 0.15126348 0.15965869 0.124709874 -0.041243985 -0.10301276
0.10796185 0.14190027 0.0034897216 -0.0898833 0.10533604 -0.12970378 0.12743714 -0.018623266
00000000: 0a46 423d 1c2c 113d b31e a53d 07ee 1fbd
00000010: 3452 093d 999c a9bc f465 353d df1c f13c
00000020: d82f 8fbd 8093 f3bc e916 01be e322 88bd
00000030: 038b 09bc 72c6 01be fc6e 0fbe a07e 963d
00000040: fa08 ff3b 1158 b23c 8b25 f8bd 96fd 8d3d
00000050: 665c d63c a8f0 f43d 81a3 0ebc 36e3 f33c
00000060: c4e5 c4bd 8e96 2dbd b196 85bc c094 9bbd
00000070: e38e 0dbe c3b4 d73d baaa 3e3c 6b51 2c3e
00000080: d777 1bbe 786c 9abb ed6b 5b3d d0e4 1a3e
00000090: 917d 233e e467 ff3d 74ef 28bd 5bf8 d2bd
000000a0: 1a1b dd3d 4e4e 113e d0b3 643b bc14 b8bd
000000b0: 6cba d73d 11d1 04be e27e 023e d28f 98bc

fc_layers.0.weight f4 [128, 192]
0.038723916 -0.1742777 0.18261535 0.011656071 0.077086695 -0.19434743 0.02963133 0.03392888
-0.06076976 -0.23676227 0.020996843 0.11989315 -0.13693844 -0.065103464 0.09756897 0.1134475
0.038483568 0.17507562 0.17576712 0.18702285 -0.324577 0.050145615 0.0275073 0.06935505
-0.11421773 -0.08333098 0.12499136 0.049059592 0.00768126 0.2894033 -0.028223094 0.1155051
0.103190616 -0.013527069 0.02302524 0.07396964 -0.012651179 0.05835022 0.035637535 -0.060283627
-0.15979357 0.009334332 0.082035914 0.01254435 -0.39826405 -0.01414742 0.037272193 0.13652606
-0.011731442 -0.041469358 0.06980199 0.06703966 -0.46621346 -0.03926361 0.0011955431 0.049841728
-0.1507247 0.21019554 0.0675101 0.07196921 0.050465103 0.120524295 -0.048352104 0.068152346
-0.09625593 -0.24064839 0.15967408 0.09680272 0.0831118 0.16807927 0.040390577 -0.05021465
-0.26145834 -0.12828901 0.018329116 -0.09227057 0.08667821 0.22921859 -0.073427945 0.20712705
0.10511072 -0.14415659 0.10047326 0.07488463 0.22057573 -0.15474656 0.059739433 0.06955622
-0.047430057 0.0904608 0.10166884 0.05040407 0.107108705 0.08615791 0.016500525 0.06816286
0.03624807 0.0428608 0.060125254 0.106813475 -0.120306194 -0.056344774 0.14888765 0.046909895
0.05645918 0.054857906 -0.0086013395 0.15474088 -0.31958944 -0.06375505 -0.040563446 0.07293693
-0.27364522 -0.5299622 0.07297571 0.06704562 0.24355501 0.059804775 0.058720198 0.19126676
0.34643874 -0.006520093 -0.060511284 0.040229328 0.09911675 0.20893273 0.09410435 0.10324945
-0.13926518 -0.07065681 0.039741892 0.038460866 0.14466968 0.059065685 0.117992684 0.15698163
0.46493748 -0.2679546 0.00095682935 0.0061504073 0.12769163 0.11412803 -0.023090716 0.16622685
0.29249188 -0.40263948 0.11563501 0.049225792 0.20348169 -0.11092143 0.10677101 0.12631202
-0.021414852 0.15989923 0.1359925 0.1063996 -0.11714303 -0.005518281 0.056891285 -0.010156505
0.16204643 -0.24679942 -0.014406678 0.07467496 0.23148763 0.17264207 -0.19985591 0.24954571
-0.39704564 -0.002954854 0.08299255 0.029566718 0.010353386 -0.055318758 0.059522428 0.013230788
0.055158556 0.06542606 0.15392706 0.13992785 -0.20541005 -0.09142588 -0.0895112 0.034659356
-0.10564493 -0.09794214 0.11022342 0.19809748 0.04992421 0.2374002 0.19009367 0.025232501
-0.095303774 0.12301536 -0.017428333 0.07705681 0.1010024 0.0303266 0.040209778 0.037664358
0.22311783 0.15006618 -0.13305438 -0.09268232 0.13352837 0.07706679 -0.060288373 -0.05574738
-0.0016177937 0.017123807 -0.01816911 -0.03802451 0.19799417 0.00025331485 -0.05481369 -0.04444347
0.08338095 -0.033106018 -0.13850546 0.092750035 0.05831726 -0.20611496 0.06638325 0.0010868106
0.16812299 0.08203499 0.07124471 -0.014687256 0.007901663 -0.021372482 0.037783146 -0.048029065
0.16169767 0.16043168 0.048517223 -0.029527687 0.19996622 0.015975779 -0.032946274 0.09992943
0.0734822 -0.029059889 0.07071978 -0.014928623 0.53719157 0.17810935 0.077400826 -0.03461526
0.18498884 -0.0034640566 -0.05946081 -0.027574407 0.018149082 -0.008559395 0.04032549 0.021492416
00000000: f89c 1e3d da75 32be 85ff 3a3e 1bf9 3e3c
00000010: a1df 9d3d 0303 47be 67bd f23c 02f9 0a3d
00000020: b6e9 78bd cf71 72be 9201 ac3c 8a8a f53d
00000030: 9739 0cbe f754 85bd 3dd2 c73d 2a57 e83d
00000040: f2a0 1d3d 0647 333e 4cfc 333e eb82 3f3e
00000050: f52e a6be 7d65 4d3d fd56 e13c 050a 8e3d
00000060: fcea e9bd 6fa9 aabd 78fb ff3d b6f2 483d
00000070: 14b3 fb3b ab2c 943e 1e34 e7bc f08d ec3d
00000080: 9a55 d33d a4a0 5dbc 6e9f bc3c 657d 973d
00000090: e446 4fbc a400 6f3d aaf8 113d f7eb 76bd
000000a0: eda0 23be 07ef 183c 7202 a83d d186 4d3c
000000b0: 44e9 cbbe 95ca 67bc baaa 183d 7dcd 0b3e
000000c0: 3c35 40bc c6db 29bd 59f4 8e3d 174c 893d
000000d0: 88b3 eebe e1d2 20bd c5b3 9c3a d726 4c3d
000000e0: 9357 1abe 803d 573e bc42 8a3d 9864 933d
000000f0: 7fb4 4e3d 71d5 f63d db0c 46bd 7593 8b3d
00000100: d421 c5bd 886c 76be 9a81 233e 8140 c63d
00000110: 8536 aa3d f91c 2c3e 9770 253d e0ad 4dbd
00000120: dedd 85be 325e 03be f126 963c 5af8 bcbd
00000130: 5884 b13d 47b8 6a3e 6461 96bd 1d19 543e
00000140: 4a44 d73d c99d 13be edc4 cd3d 1d5d 993d
00000150: 9bde 613e e275 1ebe 56b1 743d 7e73 8e3d
00000160: 0546 42bd 8343 b93d c137 d03d 8074 4e3d
00000170: cf5b db3d 8f73 b03d 1c2c 873c f898 8b3d
00000180: db78 143d ce8e 2f3d e645 763d 06c1 da3d
00000190: 1863 f6bd c7c9 66bd 0176 183e 9724 403d
000001a0: be41 673d afb2 603d a2ec 0cbc 6574 1e3e
000001b0: 3aa1 a3be 0292 82bd db25 26bd f55f 953d
000001c0: 3a1b 8cbe 9aab 07bf 4a74 953d 374f 893d
000001d0: 7c66 793e daf5 743d 9784 703d 6fdb 433e
000001e0: 6b60 b13e 81a6 d5bb aeda 77bd 82c7 243d
000001f0: b9fd ca3d 76f2 553e c8b9 c03d 7374 d33d
00000200: 889b 0ebe 85b4 90bd 65c8 223d 2489 1d3d
00000210: 4a24 143e dcee 713d 26a6 f13d cbbf 203e
00000220: 490c ee3e 5831 89be bbd3 7a3a 5b89 c93b
00000230: 98c1 023e f5bb e93d be28 bdbc 5f37 2a3e
00000240: 7fc1 953e c326 cebe 0cd2 ec3d fca0 493d
00000250: 815d 503e c62a e3bd c2aa da3d f057 013e
00000260: 336e afbc a0bc 233e 9e41 0b3e 09e8 d93d
00000270: afe8 efbd b2d2 b4bb d606 693d 7867 26bc
00000280: 80ef 253e fdb8 7cbe fd09 6cbc 2fef 983d
00000290: 180b 6d3e 15c9 303e 07a7 4cbe e988 7f3e
000002a0: 9149 cbbe 39a6 41bb 00f8 a93d e735 f23c
000002b0: 40a1 293c ec95 62bd cacd 733d f2c5 583c
000002c0: f0ed 613d 19fe 853d 0e9f 1d3e 3f49 0f3e
000002d0: 0357 52be 7e3d bbbd a651 b7bd f8f6 0d3d
000002e0: 5e5c d8bd e495 c8bd d1bc e13d 11da 4a3e
000002f0: 547d 4c3d 0a19 733e eaa7 423e 64b4 ce3c
00000300: a02e c3bd 7aef fb3d ddc5 8ebc f6cf 9d3d
00000310: 59da ce3d 7d6f f83c 02b3 243d f145 1a3d
00000320: 0079 643e f3aa 193e 683f 08be 3ad0 bdbd
00000330: a9bb 083e 31d5 9d3d f1f0 76bd 5d57 64bd
00000340: 260c d4ba 3a47 8c3c 63d7 94bc 97bf 1bbd
00000350: fcbe 4a3e 58cf 8439 5284 60bd 5b0a 36bd
00000360: a2c3 aa3d 2d9a 07bd 60d4 0dbe bbf3 bd3d
00000370: 14de 6e3d cd0f 53be f1f3 873d 5073 8e3a
00000380: 6f28 2c3e f601 a83d bfe8 913d d1a2 70bc
00000390: fa75 013c 5815 afbc 80c2 1a3d 20ba 44bd
000003a0: 1394 253e 3448 243e ffb9 463d 0ce4 f1bc
000003b0: f2c3 4c3e a3df 823c acf2 06bd cda7 cc3d
000003c0: d67d 963d 010f eebc 88d5 903d 2f97 74bc
000003d0: 6385 093f 4c62 363e 5384 9e3d bbc8 0dbd
000003e0: b76d 3d3e 3a05 63bb 2e8d 73bd b9e3 e1bc
000003f0: 62ad 943c b43c 0cbc 572c 253d dd10 b03c

fc_layers.0.bias f4 [128]
0.16239181 0.023364125 0.0052153636 -0.043708622 0.1661148 0.0006604253 0.056014065 0.03333021
0.039742056 -0.06608012 0.037083857 -0.0355063 -0.053820234 -0.040196594 0.037745643 0.04014099
-0.08661001 0.20442805 0.112430505 -0.08768089 -0.044552457 -0.038032107 0.1445554 -0.009309809
-0.035075665 0.06633717 0.016266802 0.11170437 0.017272701 -0.11927126 -0.031948153 -0.01814478
0.013874385 -0.054808605 0.053800583 -0.050355192 -0.049710307 -0.054264292 -0.11420889 -0.04483717
-0.03649081 0.045727886 0.050831195 0.0539117 0.011364687 0.045462385 0.052977458 -0.0019094754
-0.059234813 -0.06982468 0.17109995 -0.055879377 0.04035582 0.044946946 -0.021998353 0.0059692427
-0.07175895 -0.08992427 0.000452662 -0.032077722 -0.03360154 -0.04030839 -0.06343865 -0.05505974
-0.012322137 -0.038105246 0.053644773 -0.060180984 -0.024846224 0.12828274 -0.019305592 -0.047204204
0.00023347815 -0.06529075 0.0031077415 -0.08410233 -0.049024098 0.003433643 -0.04801414 0.028898135
0.04753621 0.0032696573 -0.05769811 -0.052229676 0.08086617 0.016301608 0.03126629 -0.057390664
-0.026868511 0.09009899 0.02793797 0.037749987 -0.035605967 -0.032290787 -0.0056482493 -0.014102076
-0.011207466 0.024302835 0.040324587 0.048483577 -0.05258049 -0.014817637 -0.044103652 -0.038805574
0.03673341 -0.042748004 0.05845473 0.018481946 0.04582106 0.05791572 0.011467752 -0.026778182
-0.022462456 -0.02719466 -0.07598428 -0.06544922 -0.019449469 -0.037933435 0.002252386 -0.06694454
0.03290143 0.16912308 -0.046746742 -0.036717318 -0.009612655 -0.03128486 -0.05487225 0.0803518
00000000: 0a4a 263e 1f66 bf3c a4e5 aa3b d007 33bd
00000010: 001a 2a3e 6420 2d3a 016f 653d 4285 083d
00000020: 91c8 223d 0455 87bd 3ee5 173d 0e6f 11bd
00000030: 9b72 5cbd 2fa5 24bd 2d9b 1a3d e16a 243d
00000040: 9760 b1bd 9655 513e f741 e63d 0a92 b3bd
00000050: a37c 36bd 8ec7 1bbd 5506 143e 2b88 18bc
00000060: 80ab 0fbd c8db 873d f541 853c 43c5 e43d
00000070: 7b7f 8d3c 7e44 f4bd 11dc 02bd 5da4 94bc
00000080: 6351 633c fd7e 60bd 005e 5c3d 3f41 4ebd
00000090: 099d 4bbd 3c44 5ebd 5ae6 e9bd 2ea7 37bd
000000a0: 6377 15bd 2a4d 3b3d 5f34 503d 84d2 5c3d
000000b0: f432 3a3c c436 3a3d e4fe 583d 5d47 faba
000000c0: 34a0 72bd 3e00 8fbd d334 2f3e c6e1 64bd
000000d0: 254c 253d 4a1a 383d e435 b4bc a399 c33b
000000e0: 5bf6 92bd 372a b8bd 4453 ed39 ee63 03bd
000000f0: c5a1 09bd 691a 25bd 1fec 81bd 5286 61bd
00000100: cae2 49bc 3f14 1cbd 9fba 5b3d 5680 76bd
00000110: 4f8a cbbc 8d5c 033e c326 9ebc 3259 41bd
00000120: d0d1 7439 28b7 85bd 40ab 4b3b d83d acbd
00000130: 7ecd 48bd f806 613b 7aaa 44bd c8bb ec3c
00000140: 54b5 423d bf47 563b da54 6cbd c9ee 55bd
00000150: 2a9d a53d f38a 853c 1511 003d 7912 6bbd
00000160: 5a1b dcbc d285 b83d 2bde e43c bb9f 1a3d
00000170: 90d7 11bd 5843 04bd f314 b9bb 650c 67bc
00000180: 859f 37bc bd16 c73c 652b 253d b796 463d
00000190: a45e 57bd adc5 72bc 08a6 34bd 98f2 1ebd
000001a0: c675 163d 8818 2fbd 3a6e 6f3d 7367 973c
000001b0: ddae 3b3d 0939 6d3d 3de3 3b3c eb5d dbbc
000001c0: 2f03 b8bc 56c7 debc a59d 9bbd 3e0a 86bd
000001d0: 7e54 9fbc 1760 1bbd c49c 133b 381a 89bd
000001e0: a6c3 063d 9a2e 2d3e 8379 3fbd e664 16bd
000001f0: 667e 1dbc 8e24 00bd b9c1 60bd 7c8f a43d

fc_layers.2.weight f4 [1, 128]
-0.2805218 0.2657581 -0.050758716 0.15667136 -0.20360914 0.084515445 0.23770745 -0.13947652
-0.008679042 0.15215321 -0.071600825 0.31090924 0.28071684 0.35377818 -0.02183343 0.22620311
-0.00899322 -0.19959131 -0.1497837 0.40305606 0.22222726 0.2653851 -0.2450368 0.17659847
-0.0071387268 -0.029463554 -0.012721079 -0.23136513 -0.009085721 0.27397797 0.0071540643 0.21489228
0.22541511 0.32653135 0.2103815 0.1663655 0.13808535 0.14147852 0.37165257 0.21728583
-0.030483447 0.21768874 0.19321652 0.10586283 -0.030540306 -0.036108598 0.31953433 0.16536108
-0.042179875 0.31391996 -0.2584425 0.13627806 0.17715223 0.23510863 -0.076598145 -0.03581228
0.23292547 0.0003424065 -0.0254133 0.27881938 0.004930226 -0.062123373 0.31413057 -0.05465878
0.18887751 -0.022007637 -0.002833504 0.13633381 0.01550442 -0.15756749 0.1597368 -0.012819825
0.024019077 0.1670289 0.33076084 0.18389557 -0.058105566 0.12527502 -0.0627999 -0.025266305
-0.009394042 0.16313721 -0.014306828 -0.0561632 -0.25100777 0.111973435 0.014065218 0.0034310324
0.17965756 -0.1925901 0.3042349 0.12521024 0.17649858 -0.011881419 0.26939145 0.0062726443
0.1207974 -0.04579776 -0.013718738 0.2790682 0.3161425 -0.015042247 -0.047799625 -0.03582257
0.22973166 0.011056603 -0.014837871 -0.01762299 0.11819237 0.003515858 0.0048240935 -0.0007528251
0.36740333 -0.03751713 0.14326835 -0.05658051 0.22414272 0.20572321 -0.04596987 -0.054532796
0.06574156 -0.24446182 0.21785657 -0.011429602 -0.12129549 0.015269865 -0.052628778 -0.1650198
00000000: 8ea0 8fbe 7211 883e 5fe8 4fbd 756e 203e
00000010: ea7e 50be 6f16 ad3d 9569 733e efd2 0ebe
00000020: 8a32 0ebc 0dce 1b3e 74a3 92bd 7f2f 9f3e
00000030: 1eba 8f3e 6a22 b53e 05dc b2bc caa1 673e
00000040: 4c58 13bc aa61 4cbe e660 19be 5d5d ce3e
00000050: 8b8f 633e 8ee0 873e edea 7abe 3bd6 343e
00000060: fbeb e9bb 8d5d f1bc 136c 50bc fbea 6cbe
00000070: 47dc 14bc d746 8c3e a46c ea3b b90c 5c3e
00000080: 38d3 663e 1e2f a73e 3f6e 573e b85b 2a3e
00000090: 3f66 0d3e bfdf 103e 3f49 be3e 2d80 5e3e
000000a0: 6cb8 f9bc cce9 5e3e 8dda 453e 9dce d83d
000000b0: aa2f fabc 9ce6 13bd 019a a33e 6a54 293e
000000c0: cec4 2cbd 1eba a03e 9352 84be 7a8c 0b3e
000000d0: 6567 353e 51c0 703e 7ddf 9cbd e6af 12bd
000000e0: 0484 6e3e 0685 b339 8e2f d0bc 6ac1 8e3e
000000f0: bc8d a13b 1475 7ebd b9d5 a03e e3e1 5fbd
00000100: 1b69 413e 5c49 b4bc 4fb2 39bb 179b 0b3e
00000110: 4006 7e3c 5f59 21be 0b92 233e 3e0a 52bc
00000120: a8c3 c43c a009 2b3e 7c59 a93e 1f4f 3c3e
00000130: 1a00 6ebd 1848 003e 3c9d 80bd 48fb cebc
00000140: 78e9 19bc 710d 273e 3067 6abc 620b 66bd
00000150: 1784 80be 5452 e53d cd71 663c 2cdb 603b
00000160: 27f8 373e 5736 45be adc4 9b3e 1d37 003e
00000170: 0bbc 343e 49aa 42bc aded 893e c18a cd3b
00000180: a164 f73d 6f96 3bbd 8fc4 60bc 07e2 8e3e
00000190: 6edd a13e c273 76bc 8ac9 43bd b0ba 12bd
000001a0: c73e 6b3e c126 353c 8b1a 73bc 175e 90bc
000001b0: d70e f23d 4f6a 663b 6e13 9e3b 3d59 45ba
000001c0: 4a1c bc3e 90ab 19bd f0b4 123e f7c0 67bd
000001d0: ab85 653e 1ba9 523e e74a 3cbd c85d 5fbd
000001e0: 83a3 863d 3354 7abe cb15 5f3e 3a43 3bbc
000001f0: c569 f8bd 752e 7a3c 4691 57bd f3fa 28be
